torch/torch_base/model/mnist_model.pkl (torch, 258827 bytes, 8 tensors)

weight f4 [32, 1, 5, 5]
000000 fd 12 a8 be 84 65 55 be 44 13 e7 bd 98 8a 17 be
       -0.32826987 -0.20839506 -0.112829715 -0.14798963
000010 0e c6 70 be e0 8e b8 be 01 f2 66 be e4 de 00 bf
       -0.23513052 -0.36046505 -0.22553255 -0.50340104
000020 6e 10 ef bd 5a 4d f8 be b0 88 fc bd 43 1b cc bd
       -0.116730556 -0.48496515 -0.123307586 -0.09966137
000030 cd 86 b2 be ce 95 a1 be fe 7c a1 bd 44 30 96 be
       -0.3486847 -0.31559604 -0.078851685 -0.293337
000040 6e f3 75 be 14 4a 7b be 3e 5b d0 be 0d c3 18 3d
       -0.24018642 -0.24539977 -0.40694612 0.03729539
000050 37 5c c0 be 0d 2e f2 be 3b 6f af bd 6b 4d bd 3e
       -0.37570354 -0.4730076 -0.085661374 0.36973128
000060 20 b5 ef 3d d1 ff 1e 3e 03 6d 94 3e 47 eb ad bd
       0.11704469 0.15527274 0.2898942 -0.08492141
000070 67 79 7f 3d 51 a8 7a 3e dd 43 ce be 50 ea 5b 3d
       0.062371638 0.2447827 -0.4028615 0.053690255
000080 e3 92 8b 3c ca 3f 6a be 75 e7 7e 3e d1 36 18 bf
       0.017037814 -0.22875896 0.24892981 -0.59458643
000090 2c 46 c6 be 20 7a b1 be 8d 32 9d be e6 b0 a8 3c
       -0.38725412 -0.34663486 -0.3070263 0.020592164
0000a0 f0 7a af be 77 29 7e be 4d 6b 16 be 23 8b 04 bf
       -0.3427348 -0.24820505 -0.1468937 -0.51774806
0000b0 a9 c7 f5 3d b4 d0 91 bd ae 6b 01 bf 3a 4a 0a bf
       0.12000973 -0.07119885 -0.5055493 -0.5401951
0000c0 7d ba ee be e6 22 10 bd 74 e2 a3 3e a3 d4 ab bd
       -0.46626654 -0.03518953 0.32008708 -0.083901666
0000d0 4a 9e 0a be c9 61 9a 3e f1 3a 2a 3f ec ce 86 3e
       -0.13536945 0.3015273 0.6649619 0.26329744
0000e0 15 6b e4 3e 61 76 ee 3e 81 47 46 3f 5a 25 ce be
       0.44612947 0.4657469 0.77452856 -0.40262872
0000f0 4b 98 05 bf af e9 22 3f 41 4c 20 3f 42 b3 48 bd
       -0.52185506 0.6363782 0.62616354 -0.04899908
000100 bd 55 a6 bf 79 6a da bf af dc 80 bf c5 1c 8c bf
       -1.2994915 -1.7063743 -1.0067347 -1.094628
000110 32 04 bd bf b0 a2 4e bf 72 b9 2b bf f8 15 4e bf
       -1.4766905 -0.8071699 -0.6707984 -0.8050227
000120 3a c5 2f bf 49 f3 94 3d 7a f8 04 3f 60 d2 18 3e
       -0.6866032 0.072729655 0.51941645 0.14924002
000130 07 29 2f 3e c9 90 d8 bf 32 88 bd be 7d c1 0f 3f
       0.17105494 -1.6919185 -0.3701797 0.56154615
000140 76 59 50 bf 44 0b 88 bf e0 72 af bf 0e 40 a0 3f
       -0.81386507 -1.0628438 -1.3706932 1.2519548
000150 cd cd 2c 3f bf c9 76 bf 0b f7 64 bf 9d 7b 84 bf
       0.6750153 -0.9640159 -0.8943946 -1.0350224
000160 61 34 25 3d 5c 2a 59 3f c5 ee 47 bf 76 2c 02 bf
       0.040333156 0.8483026 -0.7809871 -0.5084909
000170 62 d1 e7 bf b6 f4 7b bf 78 5d 0e 3f 6e ff 8f 3e
       -1.8110774 -0.98420274 0.5561137 0.28124565
000180 ce a0 8b 3f 42 63 5a 3c 13 9d c5 bf 62 cf 2f bf
       1.0908449 0.013329329 -1.543856 -0.68675816
000190 07 04 62 bf 8c b5 42 3d 1a 64 fd 3e d1 4f 3a 3f
       -0.88287395 0.047536418 0.49490434 0.7277804
0001a0 51 ba c9 be 33 00 3c 3d d0 b6 2f 3e ba 88 8b 3e
       -0.3939996 0.045898627 0.17159581 0.27252752
0001b0 cd 66 be 3e 98 b3 d1 bf be 86 6b 3f 52 9e 1d 3f
       0.37187806 -1.6382933 0.92002475 0.615697
0001c0 3f c0 bb 3e 1e 29 04 bf 47 27 c3 bf 2d 0a 09 bf
       0.3667011 -0.5162524 -1.5246361 -0.5353115
0001d0 05 dc 55 3e d6 c6 17 bf ea 29 49 bf a6 64 10 bf
       0.20884712 -0.59287775 -0.7857958 -0.5640358
0001e0 50 59 ff bf 84 f3 b0 bf 82 ab 85 bf 76 a9 9b be
       -1.9949131 -1.3824315 -1.0442965 -0.30402726
0001f0 99 1f 87 3e e4 ed 52 3e c4 e5 fe bd 72 d0 a9 3f
       0.26391295 0.2059856 -0.12446168 1.3266737
000200 77 e5 67 3d 9d 24 c1 3d b9 4d b4 3e 50 f6 1d 3f
       0.05661532 0.094308116 0.35215548 0.6170397
000210 ae 91 95 3e 03 e4 ab bf 06 8a 43 bf 87 5d 9c bd
       0.29212707 -1.3428959 -0.7638248 -0.076350264
000220 2f 96 e3 3f 7c 9e 80 3e 34 65 81 bf 73 e9 96 be
       1.7780207 0.25120914 -1.010901 -0.29474983
000230 f2 da 62 bf aa 3b 57 3f b0 65 cc 3f bd fc f7 be
       -0.88615334 0.84075415 1.5968533 -0.48435012
000240 a1 d0 34 bd 00 ae 8c bf 53 c5 32 be 3f d0 d4 3e
       -0.044144277 -1.09906 -0.17458086 0.4156513
000250 db c9 42 3f 5a 50 4a 3f d3 21 51 bf bb e1 4e 3f
       0.76089257 0.79028857 -0.81692237 0.8081319
000260 ae f6 e1 3e c5 7c 9e 3e b2 62 09 3f 40 df c6 be
       0.44133514 0.30954567 0.5366622 -0.388422
000270 ff be 7d 3f 7d 53 01 3f 9a 55 44 3f d2 c6 34 3f
       0.9911956 0.5051802 0.7669312 0.70615876
000280 11 3c 7a 3e c6 ab 53 3f 00 9f 84 3f b8 9a 67 3f
       0.24436976 0.8268398 1.0361023 0.9047046
000290 f5 cd 71 3f 5b 3d 67 3f bc fd 34 3f ea 39 96 3f
       0.9445489 0.90327996 0.7069967 1.1736424
0002a0 00 c2 72 3f 9c 49 02 3f 56 8c 00 3f 2f 5e 19 3f
       0.9482727 0.5089357 0.50214136 0.5990934
0002b0 a0 c4 30 3f 49 34 85 3e b5 cc 07 bf f8 0f ce bb
       0.69050026 0.26016453 -0.53046733 -0.0062885247
0002c0 d8 4d 6d 3d 31 4b 0a 3e 8e 1d 3b be b1 58 b1 bf
       0.057935566 0.13505246 -0.18272993 -1.3855191
0002d0 89 af 9a be cf af e1 bc 59 96 0c 3f 4e bb 35 3f
       -0.30212048 -0.027549652 0.5491691 0.7098893
0002e0 eb a0 b3 3d 4f db d8 bf 95 8d 57 bf 54 5d c4 be
       0.08770927 -1.6941928 -0.8420041 -0.38352454
0002f0 98 7f 9b 3e 74 d7 2b 3f 24 df 51 bf fb c0 5c bf
       0.30370784 0.6712563 -0.8198111 -0.86231965
000300 2d b1 0d bf 41 07 13 be 26 6c ae 3e 1c c8 38 bf
       -0.55348474 -0.14358236 0.34066886 -0.7218034
000310 db 64 78 bf e3 f8 9f bf ac 5f 95 bf 6d fc 23 bf
       -0.97028893 -1.2497829 -1.1669822 -0.64057046
000320 3a 21 32 3e 16 30 54 3c 66 14 f6 3e e4 66 99 bd
       0.17395487 0.012950918 0.48062438 -0.07490328
000330 79 92 0b bf 74 c2 05 be 5a 19 38 3d 61 43 83 be
       -0.54520375 -0.13062459 0.044946052 -0.25637344
000340 1b 36 2f be c1 e9 63 3f d3 b9 7a bf 40 e2 07 3f
       -0.17110483 0.89028555 -0.97939795 0.53079605
000350 62 a6 44 3f d0 24 12 3f eb 8e 0f 3f db 24 e0 bf
       0.7681638 0.5708742 0.5607745 -1.7511247
000360 2f 4e 90 bf 21 b3 19 3e 18 cb 70 3e 81 c3 e3 be
       -1.127386 0.15009739 0.23514974 -0.44485095
000370 4e e3 d9 be d6 3a a2 bf bf c0 e0 bf b4 19 df bf
       -0.42556232 -1.2674205 -1.7558821 -1.7429719
000380 cd 6b dc bf e9 9c 18 bf f9 d1 5d 3f 0f f7 fe be
       -1.7220398 -0.59614426 0.8664852 -0.49797866
000390 e8 ae c2 bf ca f6 fc bf 87 54 19 bf cb 3f be bf
       -1.5209627 -1.9762814 -0.59894603 -1.4863218
0003a0 da 9b 05 c0 c0 6b d2 be 7a ff 9b be 16 f1 62 bf
       -2.0876374 -0.41097832 -0.3046835 -0.8864912
0003b0 0a af c6 bf b6 05 a9 3e 31 a5 54 3f f6 71 86 3f
       -1.5522168 0.3301217 0.8306456 1.0503528
0003c0 e0 ad ae bf 80 31 bc be 8e ad 51 3f 49 13 0b 3f
       -1.3646812 -0.36756516 0.8190545 0.543263
0003d0 aa 26 99 3d 98 81 e2 bf 3d 50 da be e1 0c e9 3c
       0.07478078 -1.7695799 -0.42639342 0.028448524
0003e0 35 f2 96 3e 6e 97 34 be 9d 6b 18 be 5e 00 51 bf
       0.29481664 -0.17635891 -0.14884801 -0.81641185
0003f0 ec 32 47 bf e0 c3 55 bf 6a 9a 3f bf e0 4e 56 bf
       -0.77812076 -0.83502007 -0.7484499 -0.83714104

bias f4 [32]
000000 be 6e 95 3e 65 c8 88 3e 0b 31 b6 3e 80 c7 0e bf
       0.29186052 0.2671539 0.35584292 -0.5577316
000010 70 3e c6 3e c6 79 ed bf 84 36 b3 be ea cf 4c 3e
       0.3871951 -1.8552787 -0.3500253 0.20001188
000020 12 2b 2a 3e 0b 66 2a bf e5 b8 05 3f ea 4b 8f bf
       0.16617993 -0.66561955 0.5223525 -1.1195042
000030 e7 f0 ff 3c 55 89 92 3e 37 0d 9f be ef d7 29 bf
       0.0312428 0.286204 -0.3106477 -0.66345114
000040 93 93 e5 be be ed 92 3e d2 b8 80 be 5f b2 97 3e
       -0.44839153 0.28697008 -0.25141007 0.29628274
000050 28 e8 a2 be e4 18 30 3f 46 a7 12 3f fa 69 24 3f
       -0.31817746 0.6878798 0.5728649 0.6422421
000060 ed aa 51 3e 2b ef 06 be 85 5d 84 3f 3e 23 12 3f
       0.2047536 -0.13177173 1.034104 0.57085025
000070 0a 5d e9 3e 18 89 8c bc 1e 4a bd 3e fa fe 3b 3e
       0.45578796 -0.017155215 0.3697061 0.18358985

weight f4 [32]
000000 c7 d3 fa 3e fe 38 97 3e 70 3c 3d 3f 53 3a 5d 3f
       0.48989698 0.2953567 0.73920345 0.8641712
000010 ce d8 6c 3f 2b 49 f1 3e 39 8f 0a 3f 1e ea 37 3f
       0.9251832 0.47126135 0.5412479 0.7184161
000020 93 2d 0c 3f ec 9e 62 3f d1 5c 91 3f 18 dd ef 3e
       0.5475704 0.88523746 1.135645 0.4684837
000030 91 78 d2 3e 3b 62 bf 3e 58 ab c6 3e 8d 81 17 3f
       0.4110761 0.3737963 0.388026 0.59182054
000040 bb ba 2e 3f 6f 4e 0d 3f e1 cf 65 3f ae 7b bf 3e
       0.6825368 0.55197805 0.89770323 0.37399048
000050 a6 38 d7 3e d4 af 33 3f ed d1 e3 3e be 0b 40 3f
       0.42035407 0.7019017 0.44496098 0.7501792
000060 bf 02 25 3f 91 21 82 3f fd 2d 1c 3f 58 05 40 3f
       0.64457315 1.0166494 0.6100767 0.75008154
000070 5e 4c a5 3e ae 30 d2 3e 33 c9 8d 3f 2c f5 ac 3e
       0.32284826 0.41052765 1.1077026 0.337808

bias f4 [32]
000000 bd 61 0c bf 93 c2 12 bf 61 be 21 bf 67 f0 13 bf
       -0.54836637 -0.57328147 -0.6318112 -0.577887
000010 df de 28 bf 6e aa a4 bf 1d 8a c4 bf 45 33 07 bf
       -0.65965074 -1.2864511 -1.5354649 -0.52812606
000020 bc 6b d1 be 5b 6a 02 bf 4a f8 42 bf 8e 5d 60 bf
       -0.40902507 -0.50943536 -0.7616011 -0.87642753
000030 6e bb 15 bf c4 6c 2c bf f1 96 07 bf 83 7f 1a bf
       -0.5848912 -0.67353463 -0.52964693 -0.6035082
000040 73 4b 1c bf df 68 3e bf bd bd 2e bf 87 54 0a bf
       -0.61052626 -0.7437877 -0.6825827 -0.5403523
000050 9e e5 25 bf 03 02 c0 be 0c a3 03 bf 66 9a 1c bf
       -0.64803493 -0.37501535 -0.51420665 -0.61173093
000060 dc 93 13 bf 8e 22 1b bf a5 03 0f bf b5 47 df be
       -0.5764749 -0.605996 -0.55864936 -0.43609396
000070 23 1c 4a bf be 2e 19 bf 73 f5 39 bf d7 03 19 bf
       -0.78949183 -0.5983695 -0.7264015 -0.59771484

running_mean f4 [32]
000000 5c 5c d5 be 45 e4 8a be 95 4a ce be ff c4 df bf
       -0.41672027 -0.2712728 -0.40291277 -1.7481993
000010 10 98 23 bf c8 b3 b8 bf 1d 40 bc 3f af 82 82 bf
       -0.63903904 -1.4429865 1.4707066 -1.0196131
000020 e2 4b 67 bf de 86 0a c0 e0 af 13 bf 8c 67 a7 bf
       -0.90350163 -2.1644816 -0.5769024 -1.3078475
000030 a7 f7 22 bf 22 69 1d bf bb 75 a1 bf cd c2 db bf
       -0.6365914 -0.61488545 -1.2614053 -1.7168823
000040 9f 2f e7 bf ee 50 94 be 21 11 97 bf 06 ba c3 be
       -1.8061408 -0.28967994 -1.1802102 -0.38227862
000050 4e cd 88 bf f7 25 08 bf 09 9c 77 be 20 fc 56 bf
       -1.0687654 -0.5318293 -0.24180616 -0.8397846
000060 84 66 9c bf 0d ff a5 bf b0 2d f4 bd 55 99 26 bf
       -1.2218785 -1.296846 -0.11922777 -0.65077716
000070 7b 14 05 bd d7 4e 5a bf 6f 38 61 bf bd 44 c7 be
       -0.032490235 -0.8527655 -0.87976736 -0.3891963

running_var f4 [32]
000000 e6 7e bb 3f 64 8f 8c 3f 41 59 4f 40 9d 14 b6 40
       1.4648101 1.0981259 3.2398226 5.6900163
000010 01 71 82 40 dd 47 b2 3f 85 a9 29 41 dc ef 99 40
       4.0762944 1.3928181 10.603887 4.8105297
000020 5a 09 91 40 13 64 06 41 0d 25 5b 40 d2 5a 29 40
       4.5323915 8.399432 3.4241364 2.6461682
000030 07 d1 2d 40 44 9a 1e 40 71 e0 33 40 80 54 7d 40
       2.715883 2.4781656 2.8105738 3.9582825
000040 6f 1c e2 40 b2 1b 80 3f b3 49 29 40 cc aa b8 3f
       7.065971 1.0008452 2.6451232 1.4427123
000050 96 c4 ef 3f 65 7b ae 40 b1 dd 0e 40 c1 37 08 41
       1.8731868 5.452563 2.232281 8.513612
000060 c4 80 bb 40 59 01 ba 40 75 44 a1 40 8e ac e9 40
       5.8594685 5.8126645 5.0396066 7.302314
000070 cc e7 66 3f 23 b3 15 40 fe 5f 84 40 f5 c5 b3 3f
       0.90197444 2.3390586 4.136718 1.4044787

weight f4 [10, 6272]
000000 9a a6 01 bc dd 9d 2c bc 23 ad 78 bd 30 9f 98 bd
       -0.007913256 -0.010535684 -0.06071199 -0.074522376
000010 c7 1f c1 3b e7 a5 30 be 4d 6f 63 3e 9b 12 40 3e
       0.0058936807 -0.17250787 0.22210427 0.18757097
000020 68 11 80 be 50 60 05 bd 16 0a 3c bd 08 bb e2 ba
       -0.2501328 -0.032562554 -0.045908056 -0.0017298171
000030 7d 5f 91 bb 41 00 ce 3b 1e 8f ad 3b 10 d5 7d bd
       -0.004436432 0.0062866514 0.005296602 -0.06197077
000040 e0 f8 11 be 33 9a 4a be 7e 3d 95 bc fe f0 8a bd
       -0.14255095 -0.19785385 -0.018217798 -0.06784247
000050 fb 49 d6 3e 65 92 4a 3e 28 df 29 3e 29 4c b8 bc
       0.41853318 0.19782408 0.16589034 -0.022497253
000060 54 6a 5b be 3b 85 55 be 2f 37 fd bc 5a 19 99 ba
       -0.2142728 -0.20851605 -0.030910103 -0.0011680529
000070 ad 17 0a bd 81 84 03 be de 0b 13 be 5b 9d 9c 3d
       -0.033713985 -0.12843515 -0.14359996 0.07647201
000080 51 d7 05 3e 52 ad 1c 3e 14 cb 04 bd 20 99 85 bd
       0.13070418 0.15300491 -0.032420233 -0.06523347
000090 99 2a 48 3d f1 ca 73 3d b5 ec c8 3d e7 a5 1b be
       0.04886875 0.059519712 0.09810773 -0.15200005
0000a0 ab c7 d5 bd 1a dd b4 bc 6b db 59 bd 03 f7 d9 bd
       -0.10438474 -0.022078086 -0.05318777 -0.10642817
0000b0 69 16 4d 3e 8f 8f ef 3d 73 77 40 3e 85 e1 df bd
       0.2002808 0.116973035 0.18795566 -0.10931686
0000c0 89 9e e8 3d ab 9c 36 3e f9 e0 f8 bc 4d 65 d1 3a
       0.11358363 0.17833202 -0.030380713 0.0015975625
0000d0 32 68 45 3b b4 95 0e be 19 9e 75 bd 1d c5 bb bc
       0.003012192 -0.13924295 -0.059965227 -0.02292114
0000e0 d4 84 11 bd 04 90 c3 bd b9 49 83 3d 9c 90 6a 3d
       -0.035527065 -0.09548953 0.06410546 0.057266816
0000f0 cc da a6 bc db 6c 8c 3b b2 d1 c4 3e 27 34 8e 3e
       -0.020368002 0.0042854375 0.38441235 0.27774164
000100 db a6 31 be 2c 7e 89 bd db c6 f2 bc 36 8a 05 3d
       -0.17348807 -0.067135185 -0.029635837 0.03260251
000110 de 20 9d bd 8e 8e 5f 3b 06 36 48 bd 4e 64 a1 bd
       -0.076722845 0.0034112069 -0.048879646 -0.0788046
000120 62 05 da 3d 2d d0 4e 3e 39 58 4d 3c d0 5d 77 3e
       0.10645558 0.201966 0.012533241 0.2415688
000130 31 65 87 be a6 d2 95 bd a8 7c 91 be 68 7e d5 bd
       -0.2644439 -0.073155686 -0.28415418 -0.10424501
000140 63 b9 1b 39 8b c8 44 3b 68 bd d2 bd a5 1d 11 bc
       0.00014851014 0.003002676 -0.102900326 -0.008857165
000150 d0 cc 44 bd 24 a7 e7 3c c7 38 9c 3d 46 d7 8b 3e
       -0.048046887 0.028277941 0.07628017 0.27312678
000160 46 ad 1a 3d b7 58 f4 3c cd b8 9d bd 5d e4 67 be
       0.037762903 0.029827459 -0.077012636 -0.22645707
000170 04 25 28 be fb fe db 3d 6e 46 ae 3d 68 40 1b 3b
       -0.1642037 0.10741993 0.08509527 0.0023689512
000180 cd 98 94 bd db 4a 1f 3c 43 c0 4c bd d4 14 3f 3e
       -0.07255707 0.009722437 -0.049988043 0.18660289
000190 92 32 90 3d 23 b4 76 bd ed 63 ac 3d a1 d6 20 be
       0.070408955 -0.060230386 0.08417497 -0.15706874
0001a0 9b c8 33 be 67 95 3a be 04 db 11 be 1b fc 88 3c
       -0.17556994 -0.18221055 -0.14243704 0.016721776
0001b0 87 dc 5c bc ff c1 59 bc 69 10 aa bd 83 ba 20 3d
       -0.013480312 -0.013290881 -0.08303911 0.03924037
0001c0 c2 d4 a9 bc d2 1d 69 3d c4 ca 19 bc aa 0f 98 bd
       -0.020731334 0.056913204 -0.009386722 -0.07424863
0001d0 2b 64 1a bc a2 67 da be c8 01 e5 bd 00 12 34 3e
       -0.009423296 -0.4265719 -0.1118198 0.17584991
0001e0 33 bb e1 bb 33 b4 89 bb 86 45 89 3e d2 0e 6e bd
       -0.006888771 -0.0042023896 0.26810855 -0.058119603
0001f0 34 6a 27 bd dc b5 ea 3a ca 17 76 bd 37 42 a4 bd
       -0.040872768 0.0017906982 -0.06008128 -0.08020442
000200 5b fd fc bd c6 43 38 bd d8 17 82 bd 2a 8b 91 bd
       -0.12353011 -0.04498651 -0.06352204 -0.071066216
000210 65 66 36 be f8 81 90 3d 50 36 4f 3b 8f 7b f2 bb
       -0.17812498 0.070560396 0.0031618066 -0.0073999832
000220 c5 9b 0e 3e d7 42 04 3d 96 91 b7 bc 2e 5d 2e 3c
       0.13926609 0.032290306 -0.022408288 0.010642333
000230 a0 3d 95 bc ae f4 cc be a0 50 69 bd ed 81 a1 bd
       -0.018217862 -0.40030426 -0.056961656 -0.078861095
000240 95 39 3d 3c 44 92 c4 bc 75 88 f0 ba ee b0 e7 bd
       0.011549373 -0.023995526 -0.0018351214 -0.113130435
000250 44 18 1e 3e ef 36 64 3e 2a ee 26 3d 42 fb 67 3c
       0.15438944 0.2228658 0.040754475 0.014159026
000260 cb 4e 93 bc ec 8e 12 b9 f4 f7 d2 bc 61 e5 97 3d
       -0.017981907 -0.00013976888 -0.025752999 0.074167974
000270 77 86 46 bd 6b 78 08 bd 25 62 37 bd f2 fd 14 be
       -0.04846808 -0.033317965 -0.044771332 -0.14549997
000280 a0 55 8e bd fc 0d e6 3d 2a 3f e2 3d 8e 26 41 ba
       -0.069499254 0.11233136 0.11047204 -0.0007368111
000290 71 f6 97 bc 54 92 96 bc 78 46 38 bd c2 82 c8 bb
       -0.01855013 -0.018380322 -0.04498908 -0.006119103
0002a0 c3 f5 57 bc da 40 c4 bc 17 dc 25 3d 1c 68 09 3d
       -0.013181153 -0.023956705 0.040493097 0.033546552
0002b0 17 11 a7 3c 2f 08 a4 3c e1 88 77 bc ad 19 2f bd
       0.020393891 0.020023433 -0.015108318 -0.042749096
0002c0 70 52 cf bd 58 e3 e4 bc 84 5b d1 bc 72 8e bb bc
       -0.101231456 -0.027940437 -0.025556333 -0.022895072
0002d0 02 48 5c bc 4d 2d 58 bc e0 37 7d bc dd 09 a5 bc
       -0.013444902 -0.013194394 -0.015455216 -0.020146305
0002e0 3f f7 8a 3c 56 01 47 3d e6 19 7d 3d f4 13 4b 3d
       0.0169636 0.04858526 0.061792277 0.049579576
0002f0 78 a1 7b 3b 32 4c 92 3c 76 84 07 bd 8e 1d 10 bd
       0.0038395803 0.017858598 -0.03308531 -0.035184436
000300 67 30 0f bd b9 94 76 bc a2 1e 1d 3b 7d 85 92 bc
       -0.03495827 -0.015050107 0.0023974557 -0.017885918
000310 aa 2a 09 3d 7a 9e 10 3d b9 e7 39 3d 5f 53 d1 3c
       0.033487953 0.035307385 0.045387004 0.02555245
000320 1a 96 5a 3d 11 1b 60 3d d5 61 4d 3d 99 f0 ae 3c
       0.053365804 0.054713313 0.050142128 0.02135496
000330 0b bc 26 3d a9 7b b0 3c 7f 9b 0d 3d 56 43 01 3d
       0.040706675 0.02154334 0.03457212 0.031558357
000340 f2 e3 e2 3c a9 8b e4 3c 70 5c 36 3d a6 71 29 3d
       0.027696583 0.027898626 0.04452175 0.04136815
000350 48 80 10 3d 06 a5 ff 3b 70 ee 76 3d 4b f0 01 3e
       0.03527859 0.0078016547 0.060285985 0.1268932
000360 1b 8c ba 3d 11 70 ba 3d 65 cb 72 bc 35 5b e3 3d
       0.09108754 0.09103406 -0.014819001 0.11101381
000370 b8 d2 81 3d 51 aa 36 3d f8 b6 45 3c b9 e0 c4 3c
       0.063390195 0.04459602 0.012067549 0.024032937
000380 b0 f7 56 3d 2d 09 3f 3b 82 c2 66 3c e1 5f 80 3e
       0.052482307 0.0029149756 0.01408446 0.2507315
000390 d2 0f 5a bd 78 77 b8 bd 38 f1 92 bd da 1a 81 3e
       -0.053237744 -0.09007162 -0.07174915 0.252158
0003a0 0b 9b 56 3e 58 08 cf 3b 10 5d ab 3b df 21 73 3c
       0.20957582 0.0063181333 0.0052296 0.0148396185
0003b0 c5 58 a7 3c 0a 1e 19 3d 8d d3 6b 3c e8 8e 68 3a
       0.02042807 0.037382163 0.014393699 0.00088713923
0003c0 91 ad 27 be bb 9f 29 be 3b c0 fd be f1 81 d0 be
       -0.16374804 -0.16564839 -0.49560723 -0.40724137
0003d0 8c b8 ce be d5 60 20 be b1 09 d9 bd b1 6a 5c bd
       -0.40375173 -0.15661938 -0.105975516 -0.053812686
0003e0 cc 71 83 bd 17 84 08 be 24 80 20 bd 5f 66 55 3d
       -0.064181894 -0.13331638 -0.039184704 0.05209958
0003f0 9b a7 3b bd 64 f7 3d bd e9 4d b7 bd c4 10 4e be
       -0.045814138 -0.04637851 -0.08950407 -0.20123583

bias f4 [10]
000000 c8 b7 0d 3e 07 c5 82 3f a7 b7 e6 3e d1 8b 63 bf
       0.13839638 1.0216378 0.4506199 -0.8888522
000010 45 d1 b4 bd 70 8f fc 3d 93 6c 6f bd a4 8c 4f 3e
       -0.088289775 0.12332046 -0.058453154 0.20268494
000020 46 37 25 be e3 61 ba be
       -0.16134366 -0.36402807
