torch/torch_base/model/model.pkl (torch, 8271 bytes, 3 tensors)

weight f4 [100, 13]
-0.10888016 0.025447547 0.067358196 -0.094803974 0.09538561 0.16895333 -0.033904746 -0.028142288
0.16166365 -0.13973874 -0.12902966 -0.05206345 -0.23552227 -0.19342706 -0.27025637 0.18436688
0.023701727 0.2186529 -0.11794652 -0.22419101 -0.11744453 -0.08824867 0.0077700913 0.1502434
-0.07003538 -0.082667455 -0.30473658 -0.0075655715 -0.1014549 0.6224456 -1.9774834 1.8330029
-0.033910457 -0.6283255 0.20636186 0.024355045 -0.07379071 -0.027549174 -0.5361373 0.031497736
-0.35656455 0.60208476 0.8232232 -3.9387841 -0.99432313 0.23531918 -2.8495393 0.08537166
-0.0037573387 0.1561291 -0.03378639 -0.8285262 -0.32121187 -0.24339236 0.23700875 2.8412158
1.4077504 0.8555383 -0.092581294 0.84170544 -0.2706202 0.15081817 -0.42659092 -0.14037667
0.029345166 0.037827015 -0.22059888 -0.11363897 -0.14980541 0.18141487 0.18356791 -0.073412046
0.1619474 -0.17823835 -0.2704704 -0.25730774 0.010737866 0.022680819 -0.0054733655 0.22870837
-0.31844023 0.5241042 -0.7088901 0.23672454 0.22787626 -0.1601811 0.038536616 0.17541786
-0.08285509 0.14684701 0.038438786 0.777085 0.17567085 0.14405854 -2.0204184 0.06383789
-0.951672 0.13459826 -0.019756265 0.081164375 -0.2100201 0.372779 0.31200758 -0.13023098
-0.06744663 -0.027923914 0.18452805 0.37000164 -0.701193 0.256559 -0.15888007 -0.0531777
0.13184975 0.26719093 -0.13469541 0.112606876 0.06373934 0.00010887711 0.19573174 -0.084810875
0.37680835 -0.84935766 0.6124962 -0.1759861 -0.12761919 0.24062786 0.20542729 0.16833764
0.07464046 0.42530665 0.0013957024 0.114356935 0.24714479 0.2658672 0.0495106 0.1770238
0.07829642 -0.1706742 -0.07090053 -0.17556655 -0.039773807 -0.16125219 0.018492997 0.03906084
0.08529391 -0.090246566 2.1668863 1.085246 0.6264019 -0.015390095 0.4454973 0.2458303
0.15118033 -0.18633583 -0.14753541 -0.15110146 -0.104179196 0.04719618 0.25064042 0.15971965
-0.2748247 -0.2352521 0.24055997 0.07170276 -0.080843486 -0.03455778 -0.2435309 -0.13754901
-0.08126418 0.11524388 0.01692152 0.0025922954 0.08480403 -0.1774743 -0.18145211 -0.11532809
-0.06846279 -0.19632217 -0.24447402 -0.11159329 -0.14848065 -0.21790445 0.0520505 0.104637966
0.1748458 -0.35713378 0.44394824 -0.4435788 0.06919968 -0.0203169 0.16817826 0.18030941
0.21766777 0.13162567 -0.23058042 0.21672045 0.18029796 0.056969818 -0.24625818 0.61044633
-0.09902276 0.07250875 0.34977207 0.21703644 -0.020379892 0.24947351 0.24210796 -0.26900926
-0.17758393 -0.25979054 -0.15503523 -0.26573536 0.15289435 -0.18441218 -0.11942898 0.07453933
-0.17605805 -0.188131 -0.14918602 -0.21011949 -0.18877298 -0.37595105 -0.13592847 0.05779459
1.4212165 0.27054116 -0.12051868 -0.05729308 0.39982918 0.25499207 -0.12075111 0.1294905
0.22911885 -0.25963396 0.1372427 0.2748576 -0.043111593 0.026212454 -0.1955385 0.02997896
-0.08043678 -0.030432045 -0.10372734 -0.25976762 -0.08025129 -0.12928672 0.011924654 -0.44430566
0.048638888 0.17877488 1.922629 1.2612273 0.46621758 0.015643401 0.5103142 -0.020612942
00000000: 90fc debd 6077 d03c 18f3 893d 9628 c2bd
00000010: 8859 c33d 1a02 2d3e b4df 0abd a88a e6bc
00000020: 288b 253e ac17 0fbe 5a20 04be 7c40 55bd
00000030: c02c 71be be11 46be 0b5f 8abe acca 3c3e
00000040: 202a c23c 8ce6 5f3e f28d f1bd 5492 65be
00000050: c286 f0bd b8bb b4bd 409c fe3b 68d9 193e
00000060: b66e 8fbd 8e4d a9bd 6f06 9cbe 9de8 f7bb
00000070: 96c7 cfbd 9858 1f3f 2d1e fdbf d79f ea3f
00000080: b1e5 0abd f1d9 20bf 8650 533e 3b84 c73c
00000090: 951f 97bd ceae e1bc 4b40 09bf c503 013d
000000a0: a18f b6be 3a22 1a3f c1be 523f 0a15 7cc0
000000b0: f68b 7ebf 83f7 703e da5e 36c0 56d7 ae3d
000000c0: af3d 76bb 4fe0 1f3e 9963 0abd 4b1a 54bf
000000d0: e275 a4be d93b 79be 6cb2 723e 7bd6 3540
000000e0: 2a31 b43f 8f04 5b3f 439b bdbd 027a 573f
000000f0: bb8e 8abe 1470 1a3e 206a dabe e7be 0fbe
00000100: 4665 f03c 80f0 1a3d ace4 61be 8cbb e8bd
00000110: 9766 19be d2c4 393e 3af9 3b3e 0e59 96bd
00000120: 8ad5 253e 1d84 36be 197b 8abe d7bd 83be
00000130: e0ed 2f3c 20cd b93c eb59 b3bb 8732 6a3e
00000140: 990a a3be b12b 063f d279 35bf eb67 723e
00000150: 6558 693e 8406 24be 92d8 1d3d bda0 333e
00000160: eeaf a9bd 105f 163e fd71 1d3d 0bef 463f
00000170: 0fe3 333e 1584 133e 894e 01c0 71bd 823d
00000180: c7a0 73bf 20d4 093e e4d7 a1bc 8239 a63d
00000190: 820f 57be e4dc be3e 75bf 9f3e 455b 05be
000001a0: 7521 8abd b1c0 e4bc ecf4 3c3e db70 bd3e
000001b0: 6281 33bf b45b 833e 75b1 22be dcd0 59bd
000001c0: 9f03 073e 40cd 883e 98ed 09be 6f9e e63d
000001d0: c589 823d f454 e438 e76d 483e 53b1 adbd
000001e0: 06ed c03e 816f 59bf 8dcc 1c3f b335 34be
000001f0: 9bae 02be 2667 763e 885b 523e b460 2c3e
00000200: 19dd 983d cbc1 d93e 00f0 b63a f833 ea3d
00000210: 8613 7d3e bf1f 883e a0cb 4a3d ba45 353e
00000220: e059 a03d 38c5 2ebe 4c34 91bd b8c7 33be
00000230: dce9 22bd 4b1f 25be a07e 973c 42fe 1f3d
00000240: 93ae ae3d 31d3 b8bd 44ae 0a40 57e9 8a3f
00000250: e05b 203f bd26 7cbc 3918 e43e f0ba 7b3e
00000260: 04cf 1a3e d2ce 3ebe 8613 17be 57ba 1abe
00000270: e75b d5bd c850 413d f153 803e 8c8d 233e
00000280: d3b5 8cbe ede5 70be 5a55 763e e6d8 923d
00000290: 4591 a5bd 758c 0dbd 2a60 79be a6d9 0cbe
000002a0: d66d a6bd fc04 ec3d 009f 8a3c 80e3 293b
000002b0: bcad ad3d d3bb 35be 95ce 39be 2231 ecbd
000002c0: 3836 8cbd ae08 49be 6657 7abe 068b e4bd
000002d0: 500b 18be 5822 5fbe e832 553d 6e4c d63d
000002e0: c70a 333e 3dda b6be 2f4d e33e c31c e3be
000002f0: 90b8 8d3d a16f a6bc ec36 2c3e 08a3 383e
00000300: 4de4 5e3e e1c8 063e 461d 6cbe f7eb 5d3e
00000310: 07a0 383e 2f59 693d 1b2b 7cbe 3646 1c3f
00000320: 72cc cabd 787f 943d 5315 b33e cd3e 5e3e
00000330: bbf3 a6bc fc75 7f3e 26eb 773e 95bb 89be
00000340: 90d8 35be 4403 85be 8ec1 1ebe 770e 88be
00000350: 5690 1c3e 8cd6 3cbe 2e97 f4bd 14a8 983d
00000360: 9048 34be 6aa5 40be 38c4 18be 9029 57be
00000370: b44d 41be a87c c0be d530 0bbe 05ba 6c3d
00000380: 6cea b53f 5f84 8a3e 7fd2 f6bd 26ac 6abd
00000390: 69b6 cc3e 528e 823e 5c4c f7bd 2899 043e
000003a0: 229e 6a3e beee 84be 5a89 0c3e 23ba 8c3e
000003b0: c895 30bd 80bb d63c 3f3b 48be 7096 f53c
000003c0: 0abc a4bd a04c f9bc 006f d4bd 4300 85be
000003d0: ca5a a4bd bd63 04be a05f 433c 087c e3be
000003e0: 9239 473d c310 373e b518 f63f e56f a13f
000003f0: 12b4 ee3e 9726 803c f4a3 023f 79dc a8bc

bias f4 [100]
0.036761463 0.23296931 1.2252679 1.0222718 -0.7106222 0.24805275 0.21861362 0.04060634
0.042022295 0.19027905 0.20592064 -0.31566438 -0.25264043 0.2692128 -0.41320324 -0.20910822
-0.1528702 0.13094564 -0.04543458 -0.23633888 0.47311142 -0.46058023 0.22036406 0.40086508
0.010896149 -0.31043753 0.261632 -0.07875091 0.25636062 -0.121297196 0.10569157 0.20907234
0.31581792 0.26045573 0.8373524 0.46300104 -0.18374705 0.005200058 0.3411598 -0.28815073
0.22985458 0.25295743 0.2717916 -0.14423458 0.109484375 0.09405851 0.0825229 -0.41478038
-0.1414614 0.35418016 -0.09090275 0.044296145 -0.19529593 0.17328088 0.09640554 -0.18197887
-0.15966108 -0.16107774 0.31289425 -0.28758729 0.34631175 -0.049283963 0.07960392 -0.29773852
-0.013135464 -0.6431645 -0.08217258 -0.26279536 0.20976579 0.94767386 0.009503201 -0.14838573
0.0052015483 0.35091433 0.3191922 1.5697153 0.4223745 0.14535537 0.4508937 -0.053644985
-0.86557776 -0.05947101 -0.19604334 0.17077282 0.049501818 -0.13144778 0.041128762 0.07346061
0.33305302 -0.2774463 0.04482228 0.058374643 -0.19999403 -0.24109592 0.0111036 -0.0077928496
0.17038377 0.06472236 0.22015768 -0.07505824
00000000: 3093 163d 828f 6e3e 94d5 9c3f cdd9 823f
00000010: 56eb 35bf 8a01 7e3e 40dc 5f3e d552 263d
00000020: 921f 2c3d 83d8 423e dcdc 523e c39e a1be
00000030: 165a 81be 43d6 893e 608f d3be 7720 56be
00000040: 018a 1cbe 9d16 063e 9c19 3abd d202 72be
00000050: a93b f23e 2cd1 ebbe 1ea7 613e 303e cd3e
00000060: c385 323c abf1 9ebe a1f4 853e 2848 a1bd
00000070: b341 833e aa6a f8bd d274 d83d 0f17 563e
00000080: e3b2 a13e 745a 853e ba5c 563f 790e ed3e
00000090: 3028 3cbe 4065 aa3b 7fac ae3e 7e88 93be
000000a0: 005f 6b3e a383 813e 4528 8b3e 3bb2 13be
000000b0: 5839 e03d c0a1 c03d c401 a93d 185e d4be
000000c0: 42db 10be 1a57 b53e 392b babd e06f 353d
000000d0: a8fb 47be 8b70 313e 4570 c53d ab58 3abe
000000e0: 327e 23be 90f1 24be ad33 a03e a43e 93be
000000f0: c64f b13e fbdd 49bd 6107 a33d 2f71 98be
00000100: 2136 57bc 6ea6 24bf 194a a8bd 1d8d 86be
00000110: d8cc 563e c19a 723f 50b3 1b3c 6ef2 17be
00000120: c071 aa3b 0bab b33e 296d a33e 6eec c83f
00000130: 7841 d83e 0ad8 143e 8adb e63e d8ba 5bbd
00000140: 8196 5dbf e097 73bd 96bf 48be 12df 2e3e
00000150: 6bc2 4a3d 3f9a 06be a276 283d 8472 963d
00000160: ed85 aa3e 710d 8ebe 9197 373d 401a 6f3d
00000170: 3ccb 4cbe d9e1 76be e0eb 353c 295b ffbb
00000180: 1579 2e3e 288d 843d 0471 613e 22b8 99bd

weight f4 [1, 100]
0.013890125 0.05030895 0.8052878 1.5038024 -0.17037071 0.068555064 0.080500595 -0.2731268
0.039763223 0.05224598 -0.09240817 -0.11740032 -0.024195405 -0.051714648 -0.05264259 -0.050876096
0.014206506 -0.26218382 0.012123108 -0.07427202 0.091614224 -0.030270273 0.091653086 0.10362004
0.0818307 -0.0674701 0.05265076 -0.021347389 -0.093321525 -0.042309273 0.08006081 0.019145854
0.72800094 0.29375508 0.7079875 0.11389069 -0.046501253 -0.07642287 0.10018853 -0.065558374
0.13372347 -0.02295135 -0.013336338 -0.043528702 -0.07501028 0.067452036 0.34402707 -0.12338838
-0.08822127 0.1097544 0.017745761 -0.0067450404 -0.068415746 0.44185844 0.09085985 -0.003763333
-0.6519253 0.06673872 0.020785183 -0.09211643 0.43529734 -0.017236233 -0.38084796 -0.070189066
-0.062864855 -1.0910083 -0.08841088 -0.009048437 0.0854995 0.40617198 -0.70137304 -0.13386996
0.0037867203 0.2922419 0.40574557 0.8591331 0.134677 0.09652055 0.14352368 0.0560331
-0.12242746 0.048437335 -0.027426139 -0.08992112 0.61732423 -0.31433642 -0.33438098 0.094419084
0.35754928 -0.022035036 0.28531376 0.009009585 -0.39575955 0.08989864 -0.09251173 -0.05313055
0.06602319 -0.08892318 0.0024995059 0.0063301697
00000000: 6893 633c c210 4e3d 5727 4e3f 997c c03f
00000010: a975 2ebe 9966 8c3d 7fdd a43d 47d7 8bbe
00000020: c3de 223d e1ff 553d 7f40 bdbd 946f f0bd
00000030: 7135 c6bc bdd2 53bd c29f 57bd 7463 50bd
00000040: 68c2 683c f53c 86be 00a0 463c ee1b 98bd
00000050: 3da0 bb3d 5df9 f7bc 9db4 bb3d be36 d43d
00000060: db96 a73d c42d 8abd 53a8 573d b8e0 aebc
00000070: 5b1f bfbd 7d4c 2dbd ecf6 a33d c4d7 9c3c
00000080: 455e 3a3f 1167 963e ab3e 353f 863f e93d
00000090: 1978 3ebd 9883 9cbd a52f cd3d 7843 86bd
000000a0: ceee 083e 7804 bcbc a880 5abc 274b 32bd
000000b0: fd9e 99bd 4b24 8a3d 5124 b03e 0cb3 fcbd
000000c0: 5aad b4bd eac6 e03d 8f5f 913c 8005 ddbb
000000d0: 8e1d 8cbd 453b e23e bb14 ba3d 40a2 76bb
000000e0: 94e4 26bf 4fae 883d b045 aa3c 8aa7 bcbd
000000f0: 4bdf de3e 0033 8dbc 81fe c2be 49bf 8fbd
00000100: 4abf 80bd 29a6 8bbf c310 b5bd e53f 14bc
00000110: 5d1a af3d c6f5 cf3e 2f8d 33bf 3515 09be
00000120: a02a 783b bba0 953e e2bd cf3e 26f0 5b3f
00000130: c4e8 093e 91ac c53d dff7 123e f782 653d
00000140: 40bb fabd 3a66 463d c8ac e0bc 9028 b8bd
00000150: f608 1e3f b4f0 a0be fc33 abbe cb5e c13d
00000160: b310 b73e d282 b4bc a514 923e f09c 133c
00000170: ffa0 cabe c71c b83d ca76 bdbd 6b9f 59bd
00000180: 2b37 873d 5b1d b6bd c0ce 233b 506d cf3b
